models/brain-tumor.onnx (onnx, 812017 bytes, 9 tensors)

sequential_11_1/dense_23_1/Cast/ReadVariableOp:0 f4 [8, 1]
0.7614294 -0.714707 0.761171 0.703099 -0.99034995 0.8919591 0.85370094 -0.8902132
00000000: 0aed 423f 0af7 36bf 1adc 423f 4cfe 333f
00000010: 9387 7dbf 6e57 643f 258c 5a3f 03e5 63bf

sequential_11_1/dense_22_1/Cast/ReadVariableOp:0 f4 [25088, 8]
-0.01880879 0.0012730905 -0.016717492 -0.009686258 -0.0005581685 -0.0011658042 -0.006548961 -0.003086364
0.005446974 0.021352647 -0.018531969 -0.0052147224 -0.0060270783 -0.019154867 -0.017250203 -4.1133208e-05
-0.021478716 0.019255174 -0.0041707484 -0.020209521 0.020886708 -0.020846967 0.0028056651 0.0076580057
-0.0007922715 0.025409563 0.007792154 -0.022526914 0.019952126 -0.011885194 -0.015200391 0.037045863
0.0146572655 0.025168274 -0.01802704 -0.0056953197 0.016427621 0.014171264 0.034386255 0.0015610406
0.0040077013 0.021980973 0.0056969454 -0.032169655 0.018122504 0.03388904 0.022850402 0.018241072
0.0013513452 -0.016817475 0.006425087 -0.0046814145 0.006451958 0.019627191 0.038743183 -0.027037306
-0.0035767534 0.024440704 0.001577061 0.008116155 0.0030230526 -0.0001184274 -0.012555409 0.025793876
0.0023928627 0.002230176 -0.003841129 -0.010493131 -0.0075895074 0.016374635 -0.001183212 0.003832439
-0.01088892 0.010139337 0.0053816624 -0.010232276 0.025586393 -0.011470132 -0.027113227 0.027477661
-0.02066576 0.036650434 -0.018367175 0.007566971 0.029260984 -0.008155584 -0.01742079 0.010407283
0.008944123 0.009316289 -0.011490603 -0.0041881613 0.0060385237 -0.011657318 0.014413453 0.010886642
0.0037869427 -0.026549252 -0.005648349 -0.013873779 -0.03548658 0.021424958 0.043929424 -0.033585664
0.023369655 0.02061729 -0.0019295196 -0.0076654614 0.023071274 0.028568769 0.04142791 0.028227095
0.005862346 0.0043173777 -0.012658709 -0.0011699699 -0.0046144947 -0.0004769744 0.010767001 0.004406386
0.0066377935 -0.0020070968 0.006040127 -0.0075342287 0.007065941 -0.019401895 -0.01934952 0.019213801
-0.017062455 0.01021337 -0.017316453 -0.0005144656 0.00060331007 0.009541354 -0.014079499 -0.0010038281
-0.0017581835 -0.004303794 -0.010572249 0.005038299 -0.0059992266 0.003801708 0.002444335 0.022917347
-0.0024115983 0.026941 -0.006433922 -0.018183205 0.028906161 0.0024669534 -0.012395615 0.0044784043
-0.004898382 0.024211269 0.00631004 -0.009785528 0.03322693 -0.0075265146 -0.0008810963 0.020203955
-0.0077064945 0.01065779 0.003190785 -0.005788618 0.008799316 -0.022346217 -0.01512766 0.003706607
0.023709426 0.015544146 -0.019775053 -0.021001643 0.013655017 0.024876216 0.01983929 0.021502139
-0.0052153873 0.0054944265 0.0019704564 0.008440841 0.02349312 -0.009718641 0.005191668 0.026681742
0.0031278594 0.0061632567 -0.018748702 0.0048264884 -0.0050724074 0.012231292 0.015357614 -0.0051514
0.0017454763 0.011043058 0.006381127 0.0024461392 0.0019544966 0.0039681466 -0.0097178435 0.0073984647
-0.011382581 0.0040734108 0.0044260966 -0.0004912213 0.02469685 -0.027456336 -0.015028109 0.0038829576
-0.004659638 0.0066578635 -0.018145422 -0.0126501685 0.0077097737 -0.0210448 -0.005271523 0.012750559
-0.031433653 0.007545607 0.009656704 -0.016709426 0.03485116 -0.026692424 -0.011181123 0.040270746
0.015941512 0.006669956 -0.019522468 -0.008155804 0.016480075 0.012079123 -0.0075427117 0.011470054
0.036888216 0.028160028 0.0010657804 -0.007179222 0.038427886 0.020572009 0.018203089 0.037455924
0.008475386 -0.00039495406 -0.021407075 -0.02030638 -0.0047983485 -0.015415848 0.015147073 -0.0017768221
0.004423146 0.007837108 -0.009846203 -0.017203625 0.010569044 -0.008122985 0.007908111 0.020757262
00000000: e414 9abc d4dd a63a 1ff3 88bc 1cb3 1ebc
00000010: 0e52 12ba e6cd 98ba ab98 d6bb 9844 4abb
00000020: 887c b23b bfeb ae3c 5bd0 97bc 43e0 aabb
00000030: cc7e c5bb abea 9cbc 4c50 8dbc 7286 2cb8
00000040: 22f4 afbc 07bd 9d3c c6aa 88bb 708e a5bc
00000050: 9a1a ab3c 42c7 aabc 40df 373b 02f0 fa3b
00000060: 71b0 4fba b727 d03c 5355 ff3b 5d8a b8bc
00000070: a472 a33c 1eba 42bc 100b 79bc 67bd 173d
00000080: 0725 703c b22d ce3c 71ad 93bc ce9f babb
00000090: 3893 863c 972e 683c 9ad8 0c3d d59b cc3a
000000a0: 0953 833b 7111 b43c 71ad ba3b 54c4 03bd
000000b0: a575 943c 3ccf 0a3d c430 bb3c 4d6e 953c
000000c0: 9f1f b13a cdc4 89bc 8989 d23b 8d66 99bb
000000d0: f26a d33b 34c9 a03c 2cb1 1e3d 577d ddbc
000000e0: f767 6abb df37 c83c 63b5 ce3a 9ff9 043c
000000f0: 681e 463b 3a5c f8b8 34b5 4dbc ae4d d33c
00000100: 93d1 1c3b 2528 123b 73bb 7bbb 62eb 2bbc
00000110: 67b1 f8bb 1924 863c 0216 9bba a829 7b3b
00000120: 7167 32bc 761f 263c a858 b03b 47a5 27bc
00000130: 8e9a d13c 38ed 3bbc 8f1c debc d518 e13c
00000140: 3d4b a9bc c41e 163d c276 96bc 5af4 f73b
00000150: bbb4 ef3c 009f 05bc 0bb6 8ebc 4f83 2a3c
00000160: 5f8a 123c 59a3 183c 1543 3cbc d83c 89bb
00000170: cfde c53b 56fe 3ebc 6726 6c3c e35d 323c
00000180: 5b2e 783b d17d d9bc c915 b9bb d94e 63bc
00000190: 605a 11bd 6583 af3c 57ef 333d 1f91 09bd
000001a0: b871 bf3c 97e5 a83c efe7 fcba 8d2e fbbb
000001b0: f8ff bc3c 0d09 ea3c 50b0 293d 823c e73c
000001c0: ec18 c03b ca78 8d3b 7966 4fbc ad59 99ba
000001d0: 3035 97bb 6c12 fab9 1368 303c 7263 903b
000001e0: d981 d93b 7f89 03bb 42ec c53b b1e1 f6bb
000001f0: 6989 e73b b9f0 9ebc e282 9ebc 4366 9d3c
00000200: 90c6 8bbc fb55 273c 3cdb 8dbc 34dd 06ba
00000210: 7427 1e3a 5753 1c3c b3ad 66bc e292 83ba
00000220: d972 e6ba d706 8dbb 3a37 2dbc 5118 a53b
00000230: 2995 c4bb 1426 793b 2331 203b 29bd bb3c
00000240: e80b 1ebb 5fb3 dc3c a6d3 d2bb f2f4 94bc
00000250: 9dcc ec3c 9cac 213b fa16 4bbc 94bf 923b
00000260: 9b82 a0bb b656 c63c 74c4 ce3b 7b53 20bc
00000270: f618 083d fba0 f6bb 5ff9 66ba c482 a53c
00000280: c386 fcbb 039e 2e3c 7d1c 513b 72ae bdbb
00000290: 022b 103c 6a0f b7bc 01da 77bc 8cea 723b
000002a0: 453a c23c e0ac 7e3c 4bff a1bc a30b acbc
000002b0: 4bb9 5f3c 35c9 cb3c 0286 a23c 4125 b03c
000002c0: d7e5 aabb 970a b43b c622 013b 744b 0a3c
000002d0: a574 c03c ef3a 1fbc de1e aa3b ab93 da3c
000002e0: c6fc 4c3b 25f5 c93b e196 99bc 8527 9e3b
000002f0: 7036 a6bb c265 483c 809e 7b3c 13cd a8bb
00000300: 77c8 e43a f1ed 343c c618 d13b 684f 203b
00000310: 0317 003b 3a07 823b 9737 1fbc d26e f23b
00000320: 017e 3abc 3f7a 853b ca08 913b 4ec5 00ba
00000330: 0c51 ca3c 1cec e0bc 7538 76bc 3879 7e3b
00000340: e0af 98bb 352a da3b b5a5 94bc a742 4fbc
00000350: 45a2 fc3b 2566 acbc bdbc acbb b8e7 503c
00000360: 93c0 00bd 2441 f73b 2737 1e3c 35e2 88bc
00000370: 17c0 0e3d 12aa dabc 0731 37bc f0f2 243d
00000380: c697 823c a58f da3b 95ed 9fbc ec9f 05bc
00000390: 3901 873c 84e7 453c da28 f7bb e5ec 3b3c
000003a0: 1918 173d dcaf e63c a8b1 8b3a ae3f ebbb
000003b0: 8f66 1d3d a186 a83c a51e 953c 626b 193d
000003c0: 58dc 0a3c d611 cfb9 e45d afbc 9159 a6bc
000003d0: 773b 9dbb c192 7cbc 6e2b 783c 42e4 e8ba
000003e0: 0af0 903b 3767 003c f851 21bc 9eee 8cbc
000003f0: c929 2d3c 4516 05bc 0691 013c 220b aa3c

sequential_11_1/dense_22_1/Add/ReadVariableOp:0 f4 [8]
0.021879682 0.013067333 -0.0060053235 -0.0077629066 0.041060857 0.02946039 0.021717362 0.0063114953
00000000: 053d b33c 5e18 563c 4ec8 c4bb fb5f febb
00000010: 6e2f 283d ea56 f13c 9ce8 b13c a9d0 ce3b

sequential_11_1/conv2d_23_1/convolution/ReadVariableOp:0 f4 [8, 16, 3, 3]
-0.01842202 0.11929297 0.16004547 0.17917337 -0.07815415 -0.10794744 -0.07082458 0.042496264
0.1434099 -0.082938865 0.0016722555 0.10623035 -0.16306537 -0.012513567 -0.15863618 0.09630016
0.11809889 -0.10226562 0.15804708 -0.03588054 -0.10419994 0.09465835 -0.13460359 -0.13688385
-0.0030362597 -0.048528105 0.05882169 0.15515496 0.012363145 0.06659097 -0.031714104 0.029737124
-0.046700306 0.05676259 0.047843497 -0.17283975 -0.15761045 -0.0994913 0.0013755305 -0.19040592
0.07144965 0.12605219 0.10135293 -0.06420369 -0.12850176 -0.089490496 -0.048706338 0.014161706
-0.00648959 -0.06086938 0.14665024 0.14482917 0.15363194 0.033848092 -0.063834235 0.09658732
0.1282539 0.064419866 0.037672125 0.15775481 0.056519892 -0.03575637 -0.0742137 0.10886167
-0.04016461 0.014777841 0.039338343 0.07058089 0.020719714 0.0041994127 -0.11069875 -0.03639614
0.18390569 0.016973672 0.13684529 0.025015438 0.10380318 -0.038814582 0.0725772 0.077691644
0.12565094 0.083956495 0.15128699 -0.055189855 0.13984387 -0.046909586 -0.17318454 -0.01612311
-0.08223022 -0.07909575 -0.12004128 0.084142424 -0.10819613 -0.13948718 -0.18639368 0.102699235
-0.012776442 -0.057141107 0.09320964 0.033112325 0.0427838 0.076307155 0.052583806 -0.05818658
-0.024334291 -0.12337926 0.120056964 -0.09463122 0.12654935 0.027751537 -0.13229038 0.09672453
-0.043539733 -0.13137159 -0.017084807 -0.06367625 -0.030946473 0.08202113 -0.14046066 -0.14174373
-0.1403916 -0.0016746605 0.05098035 0.05356286 -0.17247601 0.1335582 0.07876908 -0.18540071
0.08810915 -0.16546175 -0.18033372 -0.02986176 0.02842587 -0.1650219 0.023050476 -0.1467368
-0.062682 -0.15264623 0.11295848 -0.11876065 -0.05438781 0.016980695 -0.111625835 0.090785295
-0.020999702 0.055470206 -0.12057709 -0.09809573 0.103927575 -0.009515026 -0.13512903 -0.07847855
0.15942629 -0.12766072 0.025814964 0.14548837 0.13766581 -0.09678752 -0.03339153 0.013734729
-0.06477201 0.10610132 -0.12790567 0.13115677 0.13442093 0.16105221 0.13185216 0.07012696
-0.10245166 0.07155639 0.13506979 -0.083927326 -0.058158938 -0.07713723 -0.13314374 0.070164636
-0.11834212 -0.009208213 -0.02972483 0.019052083 0.03781252 0.05753724 0.011901743 -0.0382572
-0.032913975 -0.05528325 0.059669793 0.13838202 0.05865379 0.06455886 -0.119352184 -0.048839375
0.0097628385 -0.052545033 -0.020306632 0.011101007 0.08512576 -0.08234911 -0.042684104 -0.056457397
0.060821723 -0.11373851 -0.15580148 0.04549059 0.07621165 -0.13037457 0.04679354 0.11756356
-0.021445509 0.12195276 0.064808294 -0.08346568 -0.13487051 -0.029531112 -0.06377615 -0.06238236
0.051521994 0.13783024 0.09871224 0.09562325 -0.14073788 0.0393734 0.07761035 0.1693779
0.14885086 -0.02770046 -0.06391248 0.010813863 0.042739958 -0.09417801 0.013827773 0.10660364
0.12268017 0.066831395 0.031933382 0.026813958 -0.0803475 -0.090755604 0.09102996 0.16045985
0.008725954 -0.01956211 -0.119299136 -0.17894463 -0.012181871 0.014970629 -0.08972951 0.05454764
0.05417261 -0.06454104 -0.11539322 -0.09146898 0.092930764 0.1360794 -0.11998274 -0.0094469935
00000000: c7e9 96bc df4f f43d f6e2 233e 3979 373e
00000010: 480f a0bd 8c13 ddbd 7a0c 91bd 9010 2e3d
00000020: 0bda 123e dadb a9bd 952f db3a 4c8f d93d
00000030: 9cfa 26be b405 4dbc 8671 22be 0539 c53d
00000040: d5dd f13d a370 d1bd 18d7 213e 79f7 12bd
00000050: c766 d5bd 3ddc c13d 86d5 09be 482b 0cbe
00000060: fcfb 46bb 68c5 46bd 03ef 703d f1e0 1e3e
00000070: ca8e 4a3c d960 883d a6e6 01bd 459b f33c
00000080: d248 3fbd e47f 683d 8bf7 433d e7fc 30be
00000090: a264 21be 18c2 cbbd 254b b43a c5f9 42be
000000a0: 3254 923d d313 013e 2092 cf3d 397d 83bd
000000b0: f795 03be cb46 b7bd 4c80 47bd 8006 683c
000000c0: a0a6 d4bb 2c52 79bd 7b2b 163e 194e 143e
000000d0: b151 1d3e 4ca4 0a3d 86bb 82bd 93cf c53d
000000e0: fe54 033e 90ee 833d 164e 1a3d 7a8a 213e
000000f0: 6781 673d 4575 12bd 5afd 97bd def2 de3d
00000100: a583 24bd c21e 723c 3e21 213d b78c 903d
00000110: 64bc a93c 3a9b 893b 07b6 e2bd 1e14 15bd
00000120: c651 3c3e 5f0c 8b3c 2c21 0c3e 2ded cc3c
00000130: c396 d43d 0afc 1ebd 5ba3 943d cc1c 9f3d
00000140: a4aa 003e 62f1 ab3d faea 1a3e c20e 62bd
00000150: 3b33 0f3e 4424 40bd 4a57 31be 9d14 84bc
00000160: 5168 a8bd f4fc a1bd 34d8 f5bd dd52 ac3d
00000170: ef95 ddbd bad5 0ebe fcdd 3ebe fa53 d23d
00000180: 4854 51bc cb0c 6abd b2e4 be3d caa0 073d
00000190: 113e 2f3d ed46 9c3d 1e62 573d 0d55 6ebd
000001a0: b558 c7bc 44ae fcbd 6de0 f53d 03ce c1bd
000001b0: 2796 013e 3157 e33c 2177 07be 8317 c63d
000001c0: b856 32bd 4686 06be 70f5 8bbc b268 82bd
000001d0: 7583 fdbc b2fa a73d ebd4 0fbe 4525 11be
000001e0: d1c2 0fbe 4880 dbba c5d0 503d bb64 5b3d
000001f0: 8d9d 30be 7bc3 083e af51 a13d afd9 3dbe
00000200: 9272 b43d ce6e 29be 67a9 38be a6a0 f4bc
00000210: 5fdd e83c 80fb 28be 5ad4 bc3c 2c42 16be
00000220: 6c5f 80bd 4b4f 1cbe c756 e73d c938 f3bd
00000230: c1c5 5ebd 191b 8b3c 169c e4bd a4ed b93d
00000240: 9107 acbc ba34 633d 1ff1 f6bd 6ae6 c8bd
00000250: fbd7 d43d e9e4 1bbc 445f 0abe 5db9 a0bd
00000260: a540 233e 7eb9 02be e779 d33c e7fa 143e
00000270: 44f8 0c3e 8938 c6bd 8fc5 08bd a107 613c
00000280: 30a7 84bd a64b d93d b4f9 02be f64d 063e
00000290: a4a5 093e dfea 243e 4104 073e b99e 8f3d
000002a0: 2dd2 d1bd 288c 923d bc4f 0a3e 17e2 abbd
000002b0: 1138 6ebd 20fa 9dbd d556 08be 7ab2 8f3d
000002c0: 5a5d f2bd 0bde 16bc 7d81 f3bc 1d13 9c3c
000002d0: 4de1 1a3d 2bac 6b3d 87ff 423c 95b3 1cbd
000002e0: ced0 06bd b070 62bd 5068 743d 04b4 0d3e
000002f0: f53e 703d 7037 843d eb6e f4bd cc0b 48bd
00000300: 50f4 1f3c 7639 57bd 185a a6bc 00e1 353c
00000310: 6a56 ae3d a6a6 a8bd 87d5 2ebd df3f 67bd
00000320: 3320 793d bcef e8bd 6c8a 1fbe 5754 3a3d
00000330: db14 9c3d e980 05be 95aa 3f3d 2ac5 f03d
00000340: 7eae afbc 5ec2 f93d 36ba 843d 0ef0 aabd
00000350: 7f1b 0abe 3beb f1bc 129d 82bd a584 7fbd
00000360: ba08 533d 5f23 0d3e a529 ca3d 1fd6 c33d
00000370: 971d 10be 0146 213d 2df2 9e3d 6671 2d3e
00000380: 5c6c 183e 13ec e2bc 8ce4 82bd a12c 313c
00000390: 1810 2f3d 67e0 c0bd e28d 623c 0253 da3d
000003a0: be3f fb3d e6de 883d 94cc 023d f2a8 db3c
000003b0: 3b8d a4bd 13de b9bd ea6d ba3d 964f 243e
000003c0: 4ef7 0e3c b840 a0bc 1b53 f4bd 433d 37be
000003d0: 7896 47bc 5e47 753c 1bc4 b7bd 596d 5f3d
000003e0: 19e4 5d3d 182e 84bd 4853 ecbd 1754 bbbd
000003f0: 7c52 be3d 6658 0b3e 83b9 f5bd 90c7 1abc

sequential_11_1/conv2d_23_1/Reshape:0 f4 [8]
0.010477417 -0.0005594449 -0.016086113 0.01402329 0.011729989 0.019920975 -0.0010948933 0.009824364
00000000: 79a9 2b3c b6a7 12ba 06c7 83bc f1c1 653c
00000010: 242f 403c 5031 a33c 8682 8fba 5ff6 203c

sequential_11_1/conv2d_22_1/convolution/ReadVariableOp:0 f4 [16, 1, 3, 3]
-0.21904974 -0.17216933 0.106802866 -0.0009183306 -0.10960552 0.035140164 0.01478631 -0.16297106
0.13412169 0.028690906 0.06092295 -0.18451607 -0.17930128 -0.03100632 0.12498115 0.05514081
0.19223918 -0.007665626 -0.039201826 0.05316557 -0.21412528 -0.16941953 -0.09928293 -0.21893117
-0.13373101 0.041335437 -0.21584791 0.13465655 0.027623426 0.014647522 0.15233386 0.026640898
0.07401544 0.15180013 0.098938726 -0.19168968 0.0013635271 0.045441218 0.13320278 -0.15903625
-0.053115983 0.21921107 -0.010998748 -0.18321408 -0.014085134 -0.05659409 -0.18711898 -0.09208644
-0.16933973 -0.045817703 -0.033222213 -0.14356434 -0.020330742 -0.13079807 -0.1718939 -0.015362018
0.13311738 0.06623108 -0.16903311 0.15563917 0.039020177 -0.10304399 0.1672942 0.006438029
0.04367287 -0.078431696 -0.002471284 -0.03021396 0.09314923 -0.050130516 0.088301025 0.025693472
-0.23660062 -0.107771434 0.10853166 -0.115590334 0.042002615 -0.22460516 -0.1005365 -0.024669921
-0.20107989 0.14639962 -0.1034885 0.023056934 0.13301738 0.060955435 0.14437091 0.016411936
0.19927843 0.03319457 0.16897832 -0.09850644 -0.1126288 -0.13506955 -0.07271375 0.21324064
0.17426598 -0.1251367 -0.021525342 0.1616051 -0.029946238 -0.087179795 0.04400891 0.2111313
-0.11113842 0.1291224 0.14219274 -0.13148814 0.058423195 -0.08454678 -0.23395534 0.04020186
-0.035046995 0.0012323939 -0.031450115 -0.06765897 0.09191912 0.13687803 -0.20072643 0.19906746
-0.08145004 0.024420911 -0.17530654 0.034538537 0.18796429 0.07011237 -0.15562317 0.047117736
-0.12591392 0.1741536 0.024194418 0.03099122 0.14866214 -0.12205382 -0.13261366 0.05789108
-0.1766267 -0.114733815 -0.2051666 0.024744906 0.10876118 -0.03501559 0.19575274 0.19196212
00000000: 934e 60be 284d 30be 76bb da3d 20bc 70ba
00000010: dc78 e0bd 22ef 0f3d 4742 723c e3e1 26be
00000020: 3257 093e 3109 eb3c 588a 793d c8f1 3cbe
00000030: c19a 37be f700 febc 1ef6 ff3d 54db 613d
00000040: 59da 443e ee2f fbbb 1892 20bd 24c4 593d
00000050: a843 5bbe 507c 2dbe d954 cbbd 7e2f 60be
00000060: c8f0 08be 594f 293d 3c07 5dbe 68e3 093e
00000070: 864a e23c 29fc 6f3c 68fd 1b3e 033e da3c
00000080: 6895 973d 7e71 1b3e 63a0 ca3d 4d4a 44be
00000090: 61b8 b23a 9220 3a3d 4f66 083e 66da 22be
000000a0: 2590 59bd de78 603e 1834 34bc 799c 3bbe
000000b0: 55c5 66bc 34cf 67bd 1e9c 3fbe d197 bcbd
000000c0: 6567 2dbe 58ab 3bbd 0414 08bd 8802 13be
000000d0: a88c a6bc eeef 05be f404 30be f9b0 7bbc
000000e0: ec4f 083e 29a4 873d 0417 2dbe e05f 1f3e
000000f0: 9fd3 1f3d ba08 d3bd 2c4f 2b3e 1af6 d23b
00000100: 53e2 323d cca0 a0bd 44f5 21bb 4483 f7bc
00000110: 06c5 be3d a855 4dbd 2bd7 b43d 1e7b d23c
00000120: 6f47 72be 45b7 dcbd d945 de3d a0ba ecbd
00000130: ef0a 2c3d e5fe 65be 15e6 cdbd 9318 cabc
00000140: e3e7 4dbe c8e9 153e c7f1 d3bd e5e1 bc3c
00000150: b535 083e 68ac 793d f8d5 133e 5372 863c
00000160: a50f 4c3e 08f7 073d a708 2d3e bfbd c9bd
00000170: eea9 e6bd ac4f 0abe f2ea 94bd c15b 5a3e
00000180: c872 323e d623 00be ea55 b0bc cf7b 253e
00000190: d051 f5bc 528b b2bd b042 343d ce32 583e
000001a0: 8a9c e3bd aa38 043e f99a 113e d4a4 06be
000001b0: 294d 6f3d dd26 adbd fd91 6fbe b5aa 243d
000001c0: 708d 0fbd 4788 a13a d6d1 00bd c990 8abd
000001d0: 1740 bc3d c129 0c3e 3b8b 4dbe 57d8 4b3e
000001e0: 47cf a6bd 5d0e c83c 8f83 33be 4878 0d3d
000001f0: b679 403e 1397 8f3d ae5b 1fbe 87fe 403d
00000200: 94ef 00be 5255 323e 5f33 c63c 4de1 fd3c
00000210: e33a 183e 5af7 f9bd e0cb 07be 321f 6d3d
00000220: a1dd 34be 90f9 eabd 3117 52be d4b5 ca3c
00000230: 2ebe de3d 826c 0fbd 6873 483e b891 443e

sequential_11_1/conv2d_22_1/Reshape:0 f4 [16]
0.0083377035 -0.036102068 -0.011016485 -0.0074226293 0.017646369 0.0 0.011641499 -0.016854234
0.024957491 0.0034377484 -0.009859383 -0.004940943 0.009191901 -0.0029947802 -0.017785668 0.011761496
00000000: dd9a 083c c3df 13bd 7d7e 34bc 8739 f3bb
00000010: 1e8f 903c 0000 0000 fcbb 3e3c e411 8abc
00000020: a773 cc3c d94b 613b 4089 21bc a2e7 a1bb
00000030: a199 163c 1344 44bb 40b3 91bc 4ab3 403c

sequential_11_1/batch_normalization_11_1/batchnorm/sub:0 f4 [8]
-1.4600135 -1.4896125 -0.063412346 -0.06342571 -1.4862658 -1.4284347 -1.4244463 -1.514979
00000000: b9e1 babf 9fab bebf 55de 81bd 57e5 81bd
00000010: f53d bebf f3d6 b6bf 4254 b6bf d5ea c1bf

sequential_11_1/batch_normalization_11_1/batchnorm/mul:0 f4 [8]
6.838282 7.824876 31.396137 31.381641 8.168773 8.717198 8.731454 6.7539787
00000000: 35d3 da40 6265 fa40 4a2b fb41 9a0d fb41
00000010: 4bb3 0241 a579 0b41 09b4 0b41 9820 d840
